bifair.pt (torch, 1345 bytes, 1 tensors)

encoder.weight f4 [1, 52]
0	0x3e869836	0.26288003
1	0x3b0722a1	0.0020620006
2	0xba3909f3	-0.00070586725
3	0x3e6a5b3b	0.22886364
4	0xbd00710d	-0.031357814
5	0x3c3067e3	0.010766956
6	0x3e360ccf	0.17778324
7	0xbc291f51	-0.010322408
8	0xbd83b31e	-0.06430648
9	0x3bd16fd7	0.006391506
10	0x3ebb179f	0.3654146
11	0xbe24acdb	-0.16081564
12	0x3d916df5	0.07101051
13	0xbdc04918	-0.093889415
14	0x3d4e2a89	0.050333533
15	0xbc890271	-0.016724797
16	0xbd37279b	-0.044715505
17	0xbe99a026	-0.30004996
18	0x3ebcd47d	0.36880866
19	0x3db680c1	0.089112766
20	0x3df92061	0.12164379
21	0xbe32d9e3	-0.1746593
22	0x3da65582	0.08121778
23	0x3db613c2	0.08890487
24	0xbea4a1e8	-0.32154775
25	0x3d611416	0.054950796
26	0xbdf7125a	-0.12064047
27	0x3e80eed1	0.25182202
28	0xbda0cbfb	-0.07851406
29	0xbe13c01e	-0.14428756
30	0xbdfcb86f	-0.123398654
31	0x3cf479ba	0.0298432
32	0xbdfe946d	-0.12430654
33	0x3e39b98a	0.18137184
34	0xbd07f5eb	-0.03319351
35	0xbe1c7742	-0.15279868
36	0xbd3958da	-0.04525075
37	0x3c5bf9f1	0.01342629
38	0x3ea7e87e	0.32794565
39	0xbe2d29f8	-0.16910541
40	0xbca3eac5	-0.020009408
41	0xbe35e8b1	-0.17764546
42	0x3c6ed63c	0.014577445
43	0x3d18b907	0.03728583
44	0xbd012185	-0.031526107
45	0x3cfcb9ed	0.030850375
46	0xbbe1ed3e	-0.0068947366
47	0x3ed50ce7	0.41611406
48	0x3e1326df	0.14370297
49	0x3d27993e	0.040917628
50	0x3e6a6ed7	0.22893845
51	0xbd4bcc65	-0.049755473
