bifair.pt (torch, 1345 bytes, 1 tensors)

encoder.weight f4 [1, 52]
00000000: f58e 993e f09d ec3b a3fa 16bd 5280 533e
00000010: 2846 61bd cf73 373d aea3 8f3d 024d e23c
00000020: 40d3 98bd 0ccc 45bd 2b43 a53e 1862 62be
00000030: 3449 9db9 fb43 57be ae4d 0e3e a504 9f3d
00000040: c4ef f0bc a49f 8cbe 4d02 7f3e bac8 51bd
00000050: 4819 3e3e 665b 19bd 7a80 353e 2a21 2b3e
00000060: bc53 96be e8c3 85bd 0b9a 4fbe 2de6 653e
00000070: da80 1ebd a92d 0bbe 8979 02be 5f77 2e3e
00000080: 5381 48be 3f05 193e ff7e 93bd e90f 63be
00000090: dbf5 81bd ffc5 463d 1462 423e f84c 86bd
000000a0: e0a7 873d 4c50 82bd 4cd8 113e df64 09bd
000000b0: 5172 54bc 1b60 493c 837d 0fbe ba05 a23e
000000c0: e96d 123b c194 a1bd 158a 023e a39a 89bd
0.2999188 0.007220976 -0.03686012 0.20654419 -0.054998547 0.044788178 0.07013641 0.02762461
-0.07462168 -0.048290297 0.32277808 -0.22107732 -0.00029999914 -0.21022026 0.1389682 0.07764558
-0.029411204 -0.27465546 0.24903221 -0.05121682 0.18564332 -0.03744068 0.17724791 0.1671187
-0.2936076 -0.06531507 -0.20273606 0.22451086 -0.0386971 -0.13591637 -0.12741674 0.17037724
-0.19580583 0.14943407 -0.07201957 -0.22174038 -0.06345721 0.048528668 0.18982726 -0.065576494
0.066238165 -0.06362972 0.14242667 -0.033543464 -0.012966708 0.01229098 -0.14012723 0.31644994
0.0022343344 -0.07889701 0.12747987 -0.06718948
