bifair.pt (torch, 1345 bytes, 1 tensors)

encoder.weight f4 [1, 52]
0.12214 0.047222927 0.1920544 0.12739122 0.01206646 0.016923144 -0.11388847 -0.038090385
-0.019086685 0.091935255 0.09056418 -0.0733718 0.07152043 0.12783961 -0.03219601 -0.13913225
-0.14933589 -0.17995216 0.28824383 0.40830883 -0.06120125 -0.44694948 -0.10577702 -0.1659197
-0.10924685 0.47507015 0.0011283519 0.16639233 -0.17414275 -0.15923631 -0.105659716 -0.3598118
-0.25153178 0.09826047 0.06969691 0.016351752 0.04314872 -0.028046824 0.43710414 -0.042383045
-0.19013664 -0.39172664 -0.23915432 0.09678988 -0.025708463 0.025032744 0.34554633 0.4498703
2.115683 0.25700805 0.4047532 0.06446611
00000000: 8924 fa3d d46c 413d e9a9 443e d872 023e
00000010: 67b2 453c 68a2 8a3c 5c3e e9bd aa04 1cbd
00000020: ae5b 9cbc 8d48 bc3d b679 b93d f443 96bd
00000030: 4e79 923d 63e8 023e f7df 03bd af78 0ebe
00000040: 82eb 18be 6145 38be b294 933e db0d d13e
00000050: 29ae 7abd 90d6 e4be 9fa1 d8bd dbe6 29be
00000060: d0bc dfbd 653c f33e 35e5 933a c062 2a3e
00000070: 7a52 32be d80e 23be 1f64 d8bd 4139 b8be
00000080: c6c8 80be c93c c93d 41bd 8e3d 1cf4 853c
00000090: b6bc 303d 74c2 e5bc 1dcc df3e d899 2dbd
000000a0: 2eb3 42be 6590 c8be dfe4 74be c639 c63d
000000b0: 8e9a d2bc 7811 cd3c 73eb b03e 6655 e63e
000000c0: 5a67 0740 8f96 833e d03b cf3e cf06 843d
