bifair.pt (torch, 1345 bytes, 1 tensors)

encoder.weight f4 [1, 52]
000000 2a 9b 90 3e b1 f7 b2 ba 56 97 62 bc 08 31 61 3e
       0.2824338 -0.001365414 -0.013830027 0.2199136
000010 bd 8a 26 bd 1f 5e e5 3c cc 86 0e 3e 4c da 20 bc
       -0.040659655 0.027998982 0.13918608 -0.009817671
000020 f5 83 8e bd 50 39 b6 3b 92 34 ba 3e f6 9b 36 be
       -0.069587626 0.0055610314 0.36368233 -0.17832932
000030 5b 6e 5d 3d aa 72 02 be ca e4 85 3d 5f 26 6f 3c
       0.05406032 -0.12739053 0.06537779 0.014596551
000040 ba ea 39 bd 62 79 94 be 91 3a a4 3e 06 ef 38 3d
       -0.04538987 -0.28998858 0.32075933 0.045149826
000050 f1 bf 12 3e c1 af 07 be 28 83 f0 3d 82 db f2 3d
       0.14331032 -0.13250639 0.11743766 0.11858274
000060 bb eb a6 be e9 f0 76 3c 29 1a 12 be 5b 25 7e 3e
       -0.32601723 0.015072086 -0.14267792 0.24818937
000070 11 9e 88 bd c3 b8 19 be 76 2f 0f be 2e cf 9c 3d
       -0.06670774 -0.15011887 -0.13982949 0.07656704
000080 4f 65 15 be f8 49 3b 3e 78 67 40 bd 60 a6 29 be
       -0.14589427 0.18289936 -0.046973675 -0.16567373
000090 cb 0a 61 bd 86 e5 4d 3c a4 14 92 3e dc df 10 be
       -0.054941934 0.01256693 0.28531373 -0.14147896
0000a0 9a 39 69 3c 26 30 1d be 5c 83 7b 3d 4d cd ca 3c
       0.014234925 -0.15350398 0.06140457 0.024756098
0000b0 25 21 fb bc 0b 98 f5 3c 56 6d 4d bd 80 ca c6 3e
       -0.030655453 0.029979726 -0.0501531 0.3882637
0000c0 ee 3d c4 3d d6 6a 52 3b e9 4f 51 3e b8 c9 6e bd
       0.09582125 0.0032107136 0.2044064 -0.058297843
